…
https://localhost:8080/"},"id":"CvAiXMHUHvz4","executionInfo":{"status":"ok","timestamp":1668974874990,"user_tz":-330,"elapsed":834,"user":{"displayName":"Ganesh A R","userId":"00915869214356693532"}},"outputId":"2271c16b-bf3b-4f09-f27b-d27aadaf6621"},"execution_count":21,"outputs":[{"output_type":"stream","name":"stdout","text":["Model: \"sequential_4\"\n","_________________________________________________________________\n"," Layer (type)                Output Shape              Param #   \n","=================================================================\n"," conv2d_12 (Conv2D)          (None, 148, 148, 32)      896       \n","                                                                 \n"," activation_20 (Activation)  (None, 148, 148, 32)      0         \n","                                                                 \n"," max_pooling2d_12 (MaxPoolin  (None, 74, 74, 32)       0         \n"," g2D)                                                            \n","                                                                 \n"," conv2d_13 (Conv2D)          (None, 72, 72, 32)        9248      \n","                                                                 \n"," activation_21 (Activation)  (None, 72, 72, 32)        0         \n","                                                                 \n"," max_pooling2d_13 (MaxPoolin  (None, 36, 36, 32)       0         \n"," g2D)                                                            \n","                                                                 \n"," conv2d_14 (Conv2D)          (None, 34, 34, 64)        18496     \n","                                                                 \n"," activation_22 (Activation)  (None, 34, 34, 64)        0         \n","                                                                 \n"," max_pooling2d_14 (MaxPoolin  (None, 17, 17, 64)       0         \n"," g2D)                                                            \n","                                                                 \n"," flatten_4 (Flatten)         (None, 18496)             0         \n","                                                                 \n"," dense_8 (Dense)             (None, 64)                1183808   \n","                                                                 \n"," activation_23 (Activation)  (None, 64)                0         \n","                                                                 \n"," dropout_4 (Dropout)         (None, 64)                0         \n","                                                                 \n"," dense_9 (Dense)             (None, 1)                 65        \n","                                                                 \n"," activation_24 (Activation)  (None, 1)                 0         \n","                                                                 \n","=================================================================\n","Total params: 1,212,513\n","Trainable params: 1,212,513\n","Non-trainable params: 0\n","_________________________________________________________________\n","None\n"]}]},{"cell_type":"code","source":["batch_size = 32\n","#Let's prepare our data. 
…
